src/hw5/DeepCNN.pt (torch, 120655 bytes, 8 tensors)

weight f4 [8, 3, 3, 3]
0	0x3eebb9eb	0.46040282
1	0x3da1cca5	0.07900361
2	0x3cbef1f3	0.02330873
3	0x3eecde1b	0.46263203
4	0xbd0897b3	-0.033347797
5	0x3e54f74f	0.20797466
6	0x3e354300	0.1770134
7	0x3e8f54b5	0.27994314
8	0x3dae1806	0.08500676
9	0xbd57f1fc	-0.05272101
10	0xbe2b0b8a	-0.1670362
11	0xbe8e6ba0	-0.27816486
12	0x3d1acb71	0.037791673
13	0xbea60f45	-0.32433525
14	0xbe913f90	-0.28368807
15	0xbe11b967	-0.14230882
16	0xbdf1edea	-0.11812957
17	0xbe72197b	-0.23642533
18	0x3e7735a9	0.24141563
19	0xbd18588b	-0.037193816
20	0xbe5aec2a	-0.21379152
21	0xbd53af6d	-0.05168097
22	0xbe2973c8	-0.16548073
23	0xbe5ac815	-0.21365388
24	0xbd281d6b	-0.04104368
25	0x3c9aa1e3	0.018876022
26	0x3d3fedac	0.04685752
27	0x3e5e3d5e	0.21703097
28	0xbe80c7c0	-0.25152397
29	0x3dc373b9	0.09543557
30	0x3e2bc860	0.16775656
31	0x3e93ebad	0.28890744
32	0x3d882da0	0.06649327
33	0xbdb393dc	-0.08768436
34	0xbe3bfa72	-0.18357256
35	0xbe73c67e	-0.23806188
36	0x3e4bb773	0.19894199
37	0xbe2f9338	-0.17146003
38	0xbc3809e6	-0.011232829
39	0xbd5a1298	-0.05324039
40	0x3e69052d	0.2275588
41	0xbe4ee640	-0.20205021
42	0x3e1fbbb0	0.15598941
43	0xbd7fdedc	-0.062468395
44	0xbe9c01d8	-0.30470157
45	0x3e17b4ef	0.14815114
46	0xbe49447b	-0.1965503
47	0x3cdc4b79	0.026891457
48	0x3c2fe6d6	0.010736188
49	0x3d9e47ff	0.07728576
50	0xbe640b50	-0.2226994
51	0xbd1330c5	-0.035935182
52	0x3de52e6b	0.11190494
53	0xbe211084	-0.15728956
54	0x3ee1841a	0.44046098
55	0x3ee41661	0.44548324
56	0x3dac5cc2	0.0841613
57	0xbe8cda84	-0.27510464
58	0x3ebfc1b7	0.3745248
59	0xbc8c91e5	-0.017159412
60	0xbf2c69f4	-0.6734917
61	0x3e14f3f1	0.14546181
62	0xbe6beaac	-0.23038739
63	0x3eafc868	0.34332585
64	0x3dcba116	0.09942834
65	0x3b75d34c	0.0037509976
66	0xbe5ef1d9	-0.21771945
67	0x3e593cf5	0.2121466
68	0xbe876003	-0.2644044
69	0xbf233824	-0.6375754
70	0x3e31785e	0.17331073
71	0xbea04bb1	-0.31307748
72	0x3e5f0918	0.21780813
73	0x3e16f974	0.14743596
74	0x3d066a31	0.032816116
75	0xbd9abcbf	-0.07555532
76	0x3ea51dd6	0.32249326
77	0x3cbfc66b	0.023410043
78	0xbef30a80	-0.47468948
79	0x3eb12b22	0.3460322
80	0xbe871843	-0.26385698
81	0xbe9a30e8	-0.30115438
82	0xbe3a9bb5	-0.1822346
83	0xbe37de36	-0.1795586
84	0x3d1073f4	0.03526683
85	0xbe824adc	-0.25447738
86	0xbea45e39	-0.32103136
87	0x3e70e6f7	0.23525606
88	0x3d30924c	0.04310827
89	0x3e0df4ea	0.13862959
90	0xbdc78684	-0.09742454
91	0xbea199e7	-0.3156273
92	0xbdb57dae	-0.08861862
93	0xbce8ca32	-0.028416727
94	0xbe737342	-0.23774436
95	0xbe55ecc6	-0.20891103
96	0x3dbbab8c	0.09163579
97	0x3d8a8404	0.06763461
98	0xbdb64d1c	-0.08901426
99	0x3c05ddc7	0.008170552
100	0x3e88c612	0.26713616
101	0x3de4dd5f	0.11175036
102	0x3e819294	0.25307143
103	0x3e6deb94	0.23234397
104	0x3cfea964	0.031086631
105	0x3c280da2	0.010257157
106	0x3ecb9e1f	0.39769074
107	0x3e4d76c9	0.20064844
108	0x3d810665	0.06300048
109	0xbc1b689b	-0.009485389
110	0xbd4ba44c	-0.049717233
111	0x3e61cf00	0.2205162
112	0x3ea7a1ce	0.32740635
113	0xbe0cb7be	-0.13741967
114	0x3d880152	0.06640877
115	0x3eafbbbd	0.3432292
116	0x3e07f980	0.1327877
117	0x3ce5d449	0.028055327
118	0xbe4b24b5	-0.19838221
119	0xbe73cb04	-0.23807913
120	0xbdcb2cfb	-0.09920689
121	0x3e060588	0.13088048
122	0x3e3226d4	0.17397624
123	0xbe2be0a6	-0.16784915
124	0x3e76d963	0.24106364
125	0xbe0b437f	-0.13599966
126	0xbe8b5506	-0.27213305
127	0xbdd5c8b0	-0.10438669
128	0x3b1d598a	0.0024009668
129	0x3e32b0b9	0.17450227
130	0xbd237d46	-0.039914392
131	0xbb28855f	-0.002571426
132	0x3dd585a4	0.104258806
133	0x3e793d44	0.24339777
134	0x3d8d877f	0.069106095
135	0x3ce7627f	0.028245209
136	0x3dab8486	0.08374886
137	0x3e94b207	0.29042074
138	0xbea0de11	-0.31419423
139	0xbe88660c	-0.26640356
140	0x3e0cabf7	0.13737474
141	0xbddc3ef8	-0.10754198
142	0xbe31ee47	-0.17376052
143	0x3e9b3d19	0.3032005
144	0xbd757c4d	-0.059932996
145	0xbe010161	-0.12598182
146	0x3e75b929	0.23996414
147	0xbda8ee53	-0.08248582
148	0x3c0bcff6	0.0085334685
149	0x3ea433fb	0.32070908
150	0xbd8c9616	-0.06864564
151	0x3e2af8de	0.16696498
152	0x3e593a16	0.21213564
153	0xbe6b01f5	-0.22949965
154	0xbeb16308	-0.34645867
155	0xbd16b10e	-0.036789946
156	0xbea9bd82	-0.33152395
157	0xbe78a9ea	-0.24283567
158	0x3e8d7aac	0.27632654
159	0xbe04996e	-0.12949154
160	0xbe4f9e75	-0.2027529
161	0x3e8c6d1c	0.27426994
162	0x3da766e8	0.08173925
163	0x3dcf727c	0.10129258
164	0xbe1c7068	-0.15277255
165	0x3c7f5ac1	0.015585602
166	0xbdf1aa2c	-0.11800036
167	0xbe28ccff	-0.1648445
168	0xbe1c6651	-0.15273406
169	0xbddf856b	-0.10914119
170	0xbe1399cc	-0.14414138
171	0x3e94b591	0.29044774
172	0x3e4d9737	0.20077215
173	0x3e365f23	0.1780973
174	0x3ebe21be	0.37135118
175	0x3eb059ee	0.3444361
176	0x3e567814	0.20944244
177	0x3e6b9e0a	0.23009506
178	0x3d871ab4	0.0659689
179	0x3e8e96ca	0.27849418
180	0xbe139d4c	-0.14415473
181	0xbe1bcc01	-0.1521454
182	0xbe9e1722	-0.30877024
183	0xbe220331	-0.1582153
184	0xbe891ae2	-0.26778322
185	0xbcaa3256	-0.020775955
186	0xbe4660c1	-0.19372846
187	0xbe51db69	-0.20493855
188	0xbdec9981	-0.11552716
189	0xbe751c51	-0.23936583
190	0x3cb90361	0.022584619
191	0xbde32f02	-0.110929504
192	0xbe4fb716	-0.20284685
193	0xbd41f937	-0.04735681
194	0x3de95e67	0.11394959
195	0xbea5dd78	-0.3239553
196	0xbd448ad7	-0.04798397
197	0xbc2ffca9	-0.010741391
198	0x3e33a583	0.17543606
199	0xbd7ca1a6	-0.061677597
200	0x3df6a256	0.12042682
201	0xbde5cfd3	-0.1122128
202	0x3e7bf0e1	0.24603607
203	0x3cffa50f	0.031206636
204	0x3d94d0ff	0.07266425
205	0x3c219d0d	0.009864104
206	0xbc8000b8	-0.015625343
207	0x3d826564	0.06366995
208	0x3e45eb82	0.1932812
209	0x3e7fae53	0.24968843
210	0x3e0f80c1	0.1401396
211	0x3e66efb8	0.22552383
212	0x3c812331	0.01576385
213	0x3e2399fe	0.15976712
214	0x3e74fe25	0.23925073
215	0x3e6575d4	0.22408229

bias f4 [8]
0	0x3da38d5f	0.07985949
1	0xbe2d966a	-0.1695191
2	0xbd94c364	-0.0726383
3	0x3e84d860	0.2594633
4	0x3e8c9cca	0.2746337
5	0x3dc0d84a	0.09416254
6	0x3d3a89e9	0.045541678
7	0xbcb57929	-0.0221525

weight f4 [16, 8, 3, 3]
0	0x3d897ae0	0.0671289
1	0xbd57f42d	-0.0527231
2	0xba4a0cba	-0.0007707585
3	0x3da57b98	0.08080214
4	0x3e13410f	0.14380287
5	0x3e53d4b2	0.20686606
6	0xbc7a781f	-0.015287428
7	0xb9d0ed89	-0.0003984983
8	0x3e8685f5	0.26274076
9	0xbd8e50ac	-0.06948981
10	0xbdb9d7c5	-0.09074358
11	0x3b4af7b4	0.0030970396
12	0xbe0247ad	-0.12722655
13	0x3d23b13e	0.039963953
14	0x3d8985df	0.06714987
15	0xbe0845be	-0.13307855
16	0xbe06dc34	-0.13169938
17	0xbbc5dbe4	-0.006038176
18	0xbda69f66	-0.081358716
19	0xbe2aeff2	-0.16693094
20	0xbe83080f	-0.25592086
21	0xbd8ab75c	-0.06773254
22	0xbe5e338d	-0.21699353
23	0xbe579068	-0.2105118
24	0xbdf4f6df	-0.119611494
25	0x3d266e26	0.04063239
26	0x3c4a7e99	0.012359285
27	0xbca54bf5	-0.02017782
28	0x3d2b5a73	0.041834306
29	0x3deee964	0.116656095
30	0x3c39c700	0.011338949
31	0xbd179f20	-0.037016988
32	0x3e09bff1	0.13452126
33	0x3d25ef5c	0.040511474
34	0xbbcecc72	-0.006310993
35	0x3d18647d	0.037205208
36	0x3e6449d6	0.22293791
37	0x3e479bac	0.19492978
38	0xbdd0e906	-0.10200696
39	0x3e5c8baa	0.21537653
40	0x3de6ac79	0.11263365
41	0xbe01559e	-0.12630317
42	0x3db3af51	0.08773673
43	0xbd88ab89	-0.06673343
44	0x3ce804b0	0.028322548
45	0xbe088616	-0.133324
46	0xbd96457d	-0.073374726
47	0xbd47ac21	-0.04874814
48	0xbd516a81	-0.05112696
49	0xbd1559be	-0.036462538
50	0xbe235edf	-0.15954159
51	0xbdff9a35	-0.124805845
52	0xbe6eb337	-0.23310553
53	0xbdf46eb4	-0.119351774
54	0xbd99e9e4	-0.07515314
55	0xbc843aaf	-0.016141264
56	0xbca98ba6	-0.020696472
57	0x3d216de9	0.03941146
58	0x3de342aa	0.110966995
59	0x3d9156a6	0.07096605
60	0xbcbc1f80	-0.02296424
61	0xbca55649	-0.020182746
62	0xbd3ae611	-0.045629565
63	0x3e042711	0.12905528
64	0xbca7d7d9	-0.020488666
65	0xbd039bfd	-0.032131184
66	0x3ce0337a	0.027368296
67	0xbdaa9d03	-0.08330729
68	0xbc7ee02e	-0.015556378
69	0x3db176dc	0.08665249
70	0xbc144e69	-0.009051898
71	0xbe1dd30e	-0.15412542
72	0xbd7f05e5	-0.06226148
73	0xbc2b6ea4	-0.0104633905
74	0xbdb5335a	-0.08847685
75	0xbda99c45	-0.08281759
76	0xbcfa263c	-0.03053581
77	0xbd5f733b	-0.05455325
78	0x3c4806e1	0.012208671
79	0xbd2215fe	-0.039571755
80	0xbcf498fb	-0.029858103
81	0xbd3254dc	-0.04353796
82	0xbde21af0	-0.11040294
83	0x3dd0e2fd	0.101995446
84	0x3cba4711	0.022738965
85	0x3de1bc41	0.11022235
86	0xbc928894	-0.017887391
87	0xbd1c54fc	-0.038166985
88	0xbde6d170	-0.11270416
89	0xbd3b0ad2	-0.045664616
90	0x3da39937	0.07988208
91	0xbe0900e6	-0.13379249
92	0xbd4a45bd	-0.049382914
93	0x3d9fe8a6	0.07808046
94	0x3d904653	0.07044663
95	0x3d4a1574	0.049336866
96	0xbcfd6e9f	-0.030936537
97	0xbc45eddb	-0.012080635
98	0xbd014454	-0.031559303
99	0xbd11e520	-0.0356189
100	0x3d7fcd92	0.062451907
101	0xbcea8845	-0.028629432
102	0xbd7744f3	-0.06036849
103	0x3d14971a	0.036276914
104	0xbd99a072	-0.07501306
105	0xbc5528da	-0.013010228
106	0x3d98f607	0.07468801
107	0x3d6c3413	0.05766685
108	0x3dc67726	0.096906945
109	0xbdb3b88d	-0.08775435
110	0xbbb113c8	-0.0054039694
111	0xbd12ae29	-0.035810623
112	0xbd916caa	-0.07100804
113	0xbd95c2f3	-0.07312574
114	0x3d1cdeff	0.038298603
115	0x3c854de3	0.01627249
116	0xbd804f42	-0.06265117
117	0xbd81e89c	-0.06343195
118	0xbd9d490d	-0.07679949
119	0x3e11cd28	0.14238417
120	0x39ec0b6e	0.00045021944
121	0xbbd0e2a4	-0.006374674
122	0xbca87d76	-0.020567637
123	0xbd163343	-0.03666998
124	0xbdb395a3	-0.08768775
125	0xbd4c42eb	-0.049868505
126	0x3dd361d0	0.10321391
127	0x3d725c51	0.05917007
128	0xbc37e126	-0.011223113
129	0xbc532ba0	-0.012888819
130	0x3de5bdf5	0.11217872
131	0x3df9a107	0.12188917
132	0x3e14d9e1	0.14536239
133	0x3d8edce6	0.06975727
134	0x3dc0ce4c	0.09414348
135	0xbc91fba8	-0.017820194
136	0xbd9a791a	-0.075426295
137	0xbdf23ddf	-0.11828207
138	0x3d8ea81f	0.0696566
139	0xbc9ea6d5	-0.019366661
140	0x3d42d969	0.04757062
141	0x3c275478	0.01021301
142	0xbddceb4a	-0.10787065
143	0xbd66b677	-0.056326356
144	0x3d50d85a	0.05098758
145	0xbcf672ce	-0.03008404
146	0xbe04b72d	-0.12960501
147	0x3de17bad	0.110099174
148	0x3ce2318f	0.027611522
149	0xbd4cd513	-0.05000789
150	0x3e200c32	0.15629652
151	0x3dc586d9	0.09644861
152	0xbbaa78cb	-0.005202388
153	0x3e347b66	0.17625198
154	0x3db98514	0.09058586
155	0x3cc6ae94	0.024253167
156	0x3d041268	0.032244116
157	0xbda94037	-0.08264201
158	0x3da832ab	0.08212789
159	0x3bd10080	0.0063782334
160	0xbd87ac4b	-0.06624659
161	0x3d897113	0.0671102
162	0x3cddefa1	0.027091803
163	0x3d1fcdac	0.039014503
164	0x3d860338	0.06543583
165	0xbd051a8d	-0.032496024
166	0xbb3fabb8	-0.002924664
167	0x3e19fb73	0.15037327
168	0x3d3ebef2	0.04656882
169	0xbd981701	-0.07426263
170	0x3e19e498	0.15028608
171	0x3ddcf399	0.1078865
172	0x3e3d9541	0.18513967
173	0x3deca4ea	0.11554892
174	0x3e551f44	0.20812708
175	0x3e30a850	0.17251706
176	0x3d024b4c	0.03181009
177	0x3e0dbd2e	0.13841698
178	0x3da1260b	0.07868584
179	0xbca37018	-0.019950911
180	0xbd9a41d9	-0.07532091
181	0xbe28d203	-0.16486363
182	0xbdb8346a	-0.08994372
183	0xbd5b9e1a	-0.053617574
184	0x3dd62d7c	0.10457894
185	0x3bb7cc48	0.005609069
186	0x3dad471f	0.08460831
187	0x3e2cdb8f	0.1688063
188	0x3e1a43b3	0.15064888
189	0xbde84830	-0.11341894
190	0x3d9ffcc7	0.07811885
191	0x3da48b09	0.08034331
192	0xbe2dfb23	-0.16990332
193	0x3df28fb5	0.11843816
194	0xbd544804	-0.051826492
195	0xbdf57e9a	-0.11987038
196	0xbde693fe	-0.11258696
197	0x3ddc58bc	0.10759112
198	0xbc14152d	-0.009038252
199	0x3d879fba	0.06622262
200	0xbd15eada	-0.036600925
201	0x3d35b280	0.044359684
202	0xbdb29c42	-0.0872121
203	0xbe1f1679	-0.15535916
204	0x3ce14da0	0.027502835
205	0xbd147f2a	-0.036254086
206	0xbd4cb829	-0.049980316
207	0xbdde6618	-0.108593166
208	0xbcd81455	-0.026376883
209	0x3c2b3f95	0.010452171
210	0x3d33c911	0.043892924
211	0xbd9fae2a	-0.07796891
212	0x3d9ea7ec	0.07746872
213	0x3d408d93	0.047010016
214	0x3e0365b5	0.12831767
215	0x3e003b2b	0.12522571
216	0xbdeebc24	-0.11656979
217	0x3db93dad	0.09044967
218	0xbe12c193	-0.14331655
219	0x3d83c09f	0.06433224
220	0xbd4d49a5	-0.05011906
221	0xbb336cc3	-0.002737806
222	0xbd58f7c6	-0.05297067
223	0x3bacccbb	0.005273429
224	0xbdda0a39	-0.10646481
225	0xbda360ee	-0.07977472
226	0x3d5248a9	0.051338825
227	0x3da1934d	0.078894235
228	0x3dd3b06c	0.10336384
229	0xbcdad0fd	-0.026710982
230	0x3dca05ef	0.09864413
231	0x3d835f8c	0.064147085
232	0xbd9c075b	-0.076185904
233	0xbdccf0f4	-0.10006896
234	0x3e024502	0.12721637
235	0x3cdf8f2e	0.027289953
236	0x3e05f29b	0.13080828
237	0xbe1709e1	-0.14749862
238	0x3dcf4b05	0.10121731
239	0x3d590946	0.05298736
240	0xbd92cd84	-0.07168105
241	0x3c9b7f85	0.018981704
242	0xbdcacc8e	-0.09902297
243	0xbcc5dc0f	-0.024152784
244	0xbb92b0d5	-0.0044766464
245	0xbd80e5cd	-0.06293831
246	0x3d2602f2	0.040530153
247	0xbae1f30e	-0.0017238574
248	0x3e1f789f	0.15573357
249	0x3e1b3267	0.15155946
250	0x3e1b49b1	0.1516483
251	0x3e0f023e	0.13965699
252	0xbe1f16d8	-0.15536058
253	0x3ce6c144	0.028168328
254	0x3d981985	0.074267425
255	0xbd8054af	-0.06266152

bias f4 [16]
0	0x3ecf72ee	0.40517372
1	0xbb9f3f9a	-0.004859877
2	0xbe09314f	-0.13397716
3	0x3d12493c	0.035714373
4	0x3ec45ca4	0.3835193
5	0xbe359c1a	-0.1773533
6	0x3b8f291b	0.004368914
7	0x3eb2cf64	0.3492385
8	0xbd963029	-0.073334046
9	0x3c786f03	0.015163186
10	0xbe181e2b	-0.14855258
11	0x3e9f4faa	0.31115466
12	0x3e0c0d9b	0.13677065
13	0x3de76525	0.11298589
14	0xbe9103ba	-0.28323156
15	0x3d508399	0.05090675

weight f4 [32, 16, 3, 3]
0	0xbd02fb49	-0.031977925
1	0x3d98c2c3	0.07459023
2	0xbd99a443	-0.075020336
3	0x3cd5f62e	0.026118364
4	0xbdb86460	-0.0900352
5	0xbd5ba86e	-0.053627424
6	0xbced975c	-0.029002838
7	0xbba2e172	-0.004970723
8	0xbcc36416	-0.023851436
9	0xbd277ce7	-0.0408906
10	0xbd231b9f	-0.039821263
11	0xbd58808d	-0.05285697
12	0xbd71f150	-0.059068024
13	0xbd59f943	-0.05321623
14	0x3da30ded	0.079616405
15	0xbd27a257	-0.040926304
16	0xbd915c98	-0.07097739
17	0x3d629b2a	0.055323757
18	0x3d095156	0.033524834
19	0x3d7328da	0.05936513
20	0xbd99079c	-0.074721545
21	0xbd9ce365	-0.076605596
22	0xbd5325e2	-0.0515498
23	0xbcd9551f	-0.026529847
24	0x3c8e6552	0.017382298
25	0x3d7a4af6	0.061106645
26	0x3db0cd8b	0.08632954
27	0xbd95cc49	-0.07314355
28	0x3d025cfc	0.031826958
29	0xbd490498	-0.049076647
30	0x3d059893	0.03261621
31	0x3d1728ff	0.03690433
32	0x3ce31d31	0.02772388
33	0x3d6701b0	0.056398094
34	0x3ca7ddab	0.020491442
35	0x3db2a842	0.08723499
36	0x3cfa95ac	0.030588947
37	0x3dacd01d	0.08438132
38	0x3d0c1426	0.034198903
39	0xbce2fb7b	-0.027707806
40	0x3d8a9527	0.0676673
41	0x3caa2a4d	0.020772124
42	0x3dc9d666	0.098553464
43	0x3bc783e7	0.006088722
44	0x3dcab79c	0.09898302
45	0xbd80a65d	-0.06281731
46	0x3d134c9b	0.03596173
47	0xbd83daf3	-0.064382456
48	0x3d4a0a9a	0.049326517
49	0x3c32eefa	0.010921234
50	0x3d3c6f34	0.04600449
51	0xbda4fd3a	-0.08056112
52	0xbdbef8f7	-0.0932483
53	0x3d045f97	0.032317724
54	0xbd0f8bab	-0.035045307
55	0x3d06552b	0.032796066
56	0xbd533270	-0.051561773
57	0xbcc82f90	-0.024436742
58	0x3ad7ed1b	0.0016473861
59	0x3d4ed3f3	0.0504951
60	0x3d4c7963	0.04992045
61	0xbbb5524e	-0.005533493
62	0xbcaf64f4	-0.021410443
63	0xbbd0e3c4	-0.006374808
64	0x3d2f9cc8	0.042874128
65	0xbd87d80f	-0.06633007
66	0xbd08e16c	-0.033418104
67	0xbdb2ffd6	-0.08740203
68	0x3c04e9e3	0.008112404
69	0xbcf39f61	-0.029739084
70	0x3cca4627	0.024691654
71	0x3d3f8e84	0.046766773
72	0xbdac355a	-0.084086135
73	0xbd493a75	-0.049128015
74	0xbc8d4d7c	-0.017248861
75	0xbc6c38d2	-0.014417844
76	0xbce5c317	-0.028047128
77	0xbd649df1	-0.055814687
78	0xbd4389f5	-0.047738988
79	0xbc1cbec9	-0.009566971
80	0x3d86e6e4	0.06587008
81	0xbcaf9f01	-0.021438124
82	0x3d781a46	0.06057193
83	0xbd80d18f	-0.0628997
84	0x3b36af5e	0.0027875523
85	0xbd87f08c	-0.066376776
86	0xbda496d9	-0.080365844
87	0x3d0b5e83	0.03402568
88	0xbc836682	-0.01604009
89	0x3daa5aae	0.08318077
90	0x3d93d424	0.07218197
91	0xbd9c1d7e	-0.07622813
92	0x3b8efe4b	0.00436381
93	0xbc70906a	-0.0146828685
94	0xbd40e627	-0.04709449
95	0xbd67e15c	-0.056611404
96	0xbd294d60	-0.041333556
97	0x3cf54166	0.029938411
98	0x3c3d221f	0.01154378
99	0x3d842a4b	0.06453379
100	0x3bc38f13	0.0059679835
101	0x3d6fc26d	0.05853503
102	0x3ca01dcb	0.019545456
103	0xbca833dd	-0.020532543
104	0xbb1eb5bc	-0.002421721
105	0xbda2c57c	-0.079478234
106	0xbbf67dee	-0.007522336
107	0xbcf11bac	-0.02943214
108	0xbc627d31	-0.013823793
109	0xbcc25180	-0.023720503
110	0xbc70fb72	-0.014708387
111	0xbd25ae57	-0.040449467
112	0x3ca25800	0.019817352
113	0x3c07bd75	0.008284916
114	0x3c074d6f	0.008258208
115	0x3dcb3411	0.0992204
116	0x3da6372d	0.08115993
117	0x3d110fb8	0.03541538
118	0xbcae27f2	-0.021259282
119	0x3ce45a4c	0.027875088
120	0xbd54d77a	-0.051963307
121	0x3d7cf62d	0.06175821
122	0x3dad8519	0.08472652
123	0xbb7d5392	-0.0038654548
124	0x3d92e818	0.071731746
125	0x3dafb8c1	0.08580161
126	0xbb2d790b	-0.0026469852
127	0xbcdd0bed	-0.026983226
128	0x3c80b8ca	0.015713114
129	0x3cb38d66	0.02191801
130	0xbd89a797	-0.06721418
131	0x3c6c5f80	0.014427066
132	0xbce19696	-0.027537625
133	0x3d6bf4d0	0.05760652
134	0x3c084638	0.008317523
135	0x3d53f729	0.051749382
136	0x3d9026ed	0.070386745
137	0xbd084fa8	-0.03327909
138	0x3c89148c	0.01673343
139	0xbc0df034	-0.008663226
140	0xbd2d9367	-0.042376902
141	0xbd2f6ae2	-0.04282654
142	0x3b957fc7	0.0045623514
143	0x3cbc3009	0.022972124
144	0x3c292506	0.0103237685
145	0x3bbc64b4	0.0057493094
146	0x3d05a988	0.03263238
147	0x3d68d837	0.056846824
148	0x3cc9919c	0.024605565
149	0xbbbc2abf	-0.0057424004
150	0xbda57723	-0.08079364
151	0xbd964a22	-0.073383585
152	0xbdc6a775	-0.09699909
153	0x3d501abd	0.05080675
154	0xbd9bb1d1	-0.07602275
155	0xbd809d8b	-0.06280049
156	0x3d46b148	0.048508912
157	0x3d2dab1c	0.04239951
158	0xbdacfdbc	-0.084468335
159	0x3d266d43	0.040631544
160	0xbcd5c0b5	-0.026092866
161	0x3c08e1dc	0.00835463
162	0xbcd99c23	-0.02656371
163	0x3c498b8d	0.012301338
164	0x3d10a952	0.035317726
165	0x3d5c3961	0.05376566
166	0x3d416073	0.04721112
167	0xbd3351c9	-0.04377917
168	0xbdd3d2e9	-0.10342962
169	0xbd422485	-0.04739811
170	0xba14968c	-0.0005668185
171	0x3c92641f	0.017870007
172	0xbdcb659e	-0.09931491
173	0xbd045c51	-0.032314602
174	0xbd13fd60	-0.03613031
175	0xbd8bd614	-0.068279415
176	0x3d18e250	0.037325203
177	0xbd9a12b8	-0.075231016
178	0xbe0473e9	-0.12934841
179	0xbdb83ee1	-0.08996368
180	0x3d1ab418	0.037769407
181	0xbd079a76	-0.03310629
182	0x3d30ab7c	0.04313229
183	0x3dd2f671	0.10300911
184	0x3c99a72f	0.018756477
185	0xbbcbdcf8	-0.00622141
186	0x3da6477c	0.08119103
187	0x3d78975a	0.060691215
188	0x3d656b73	0.056010675
189	0x3c755499	0.014973783
190	0xbaf3fcdd	-0.0018614788
191	0xbd45e431	-0.048313323
192	0x3cbb76aa	0.022883732
193	0x3d8ff516	0.07029168
194	0x3b8b86d1	0.0042580147
195	0xbd9841d6	-0.07434432
196	0x3c82d5bc	0.015971057
197	0x3d1f433d	0.038882483
198	0x3d62aa6a	0.0553383
199	0xbc4ec962	-0.012621256
200	0x3a59ac4f	0.0008303569
201	0x3b1a42b4	0.0023538293
202	0xbd468428	-0.048465878
203	0xbced3f45	-0.028960833
204	0x3d70d84d	0.05880003
205	0xbbb709c5	-0.0055858814
206	0x3d6f90ee	0.058487825
207	0x3c7f1629	0.015569248
208	0x3d2d885e	0.042366378
209	0x3d9349d6	0.071918175
210	0x3c65f1f1	0.014034734
211	0x3de2f846	0.11082511
212	0x3df3beee	0.11901651
213	0xbc2010f4	-0.009769667
214	0x3da9a8ee	0.08284174
215	0x3db4c0a4	0.08825806
216	0xbd226593	-0.03964765
217	0xbcae554b	-0.021280905
218	0x3d454e71	0.04817051
219	0x393b99b1	0.00017890964
220	0x3cb46897	0.022022529
221	0xbd093187	-0.0334945
222	0x3e014aee	0.1262624
223	0x3d898e02	0.06716539
224	0x3da1c086	0.07898049
225	0x3d0be7a5	0.03415646
226	0xbd518d55	-0.051160175
227	0xbde7b32c	-0.11313471
228	0xbcabd49d	-0.020975405
229	0xbd3c06c0	-0.045904875
230	0xbc2d4768	-0.010576107
231	0xbc498601	-0.012300015
232	0xbdc55e30	-0.096371055
233	0xbdc30090	-0.09521592
234	0x3d6640e3	0.056214225
235	0x3c63216c	0.013862949
236	0x3c5191ed	0.012791139
237	0x3d2c9719	0.042136285
238	0x3d0fcae1	0.03510559
239	0xbd8e883e	-0.0695958
240	0x3c8c2dfc	0.01711177
241	0x3c6d59b4	0.014486719
242	0xbd972d45	-0.07381681
243	0x3d9a3c1d	0.07530997
244	0x3d4b1256	0.049578033
245	0x3ddfc59f	0.10926365
246	0xbd28b3ca	-0.041187085
247	0x3dd37a0f	0.10326015
248	0xbc9d46c4	-0.019198783
249	0x3d4ba052	0.04971344
250	0x3d6a25f3	0.057165097
251	0xbc4b242d	-0.012398762
252	0xbdbd3239	-0.09238095
253	0xbd470d07	-0.04859641
254	0xbdb05beb	-0.08611282
255	0xbd3135af	-0.043264087

bias f4 [32]
0	0xbd04c43c	-0.032413706
1	0xbd8db369	-0.069189854
2	0xbe472fb2	-0.19451788
3	0xbd296516	-0.04135617
4	0x3e79642c	0.24354619
5	0x3d9b1dfa	0.07574077
6	0xba60935b	-0.00085668796
7	0x3ef2b38c	0.47402608
8	0x3d819262	0.063267484
9	0xbd824b9d	-0.06362078
10	0xba60b969	-0.000857255
11	0xbd02666d	-0.031835962
12	0xbae154b8	-0.0017191386
13	0xbd607164	-0.054795638
14	0x3d93f30f	0.07224094
15	0x3eb8ef7e	0.36120218
16	0x3e1d5a20	0.15366411
17	0x3d56f190	0.052476466
18	0x3d8db22d	0.0691875
19	0x3e6ac8fd	0.22928233
20	0x3e8c6f90	0.27428865
21	0x3e82459b	0.2544373
22	0xbd63709f	-0.055527326
23	0xbd42eace	-0.04758721
24	0x3d43d65a	0.047811843
25	0x3dd2ee01	0.10299302
26	0x3db1ca3c	0.08681151
27	0x3cfcc8c4	0.030857451
28	0xbdd7e958	-0.10542554
29	0xbe435727	-0.19076215
30	0xbe071f1d	-0.13195463
31	0xbd6a3b82	-0.057185657

weight f4 [5, 4608]
0	0x3c17a3a4	0.009255324
1	0x3cdbbf37	0.026824577
2	0xbba0ec81	-0.004911006
3	0xba1ccd1b	-0.0005981491
4	0x3c1cb16b	0.009563784
5	0x3c1ef902	0.009702923
6	0x3ca89480	0.020578623
7	0xbc3c1fd0	-0.011482194
8	0x3c08c57b	0.008347864
9	0x3bc25759	0.005930823
10	0x3cf5f107	0.030022157
11	0x3d53959e	0.051656358
12	0x3cdb1738	0.02674447
13	0xbb973202	-0.0046141157
14	0xbbbd61c4	-0.005779477
15	0x3c0e815b	0.008697833
16	0x3bc8ba7b	0.006125746
17	0xbc011bfa	-0.007880205
18	0x3c302230	0.010750338
19	0x3be86e2c	0.0070932116
20	0xbbc032fc	-0.005865453
21	0x3b4c2da6	0.0031155138
22	0x3b040588	0.0020144898
23	0x3c692483	0.0142298965
24	0x3bb3e835	0.0054903277
25	0x3b08cf23	0.0020875416
26	0x3ad7f18d	0.0016475186
27	0x3c14f761	0.009092183
28	0x3c7f449e	0.015580324
29	0x3b0b1221	0.0021220522
30	0x3bca8075	0.006179864
31	0x3c28fc26	0.010314023
32	0x3c4a0bd2	0.01233192
33	0x3b3bf662	0.002868079
34	0x3c8c8c39	0.017156707
35	0x3ca5d2af	0.020242063
36	0x3afd45cf	0.0019323173
37	0x3a93e397	0.0011283037
38	0xbb242bc7	-0.0025050507
39	0x3c2a2ccd	0.010386658
40	0xbb99a166	-0.0046884296
41	0x3c093eef	0.008376821
42	0x3ba0ab1a	0.0049032094
43	0x3bd5f03d	0.006528883
44	0x3c3127f4	0.010812748
45	0x3c72ee96	0.014827391
46	0x3c725218	0.0147900805
47	0x3c90ccb2	0.017675731
48	0x3c04c4e4	0.008103583
49	0x3b3f3c0f	0.0029180085
50	0x3c4f309a	0.012645865
51	0x3bc1f958	0.0059196167
52	0x3c878e50	0.016547352
53	0x3c626b59	0.013819539
54	0xbb9d1b77	-0.004794534
55	0x3c73ca97	0.014879844
56	0x3bd3f381	0.006468237
57	0x3c56f636	0.013120225
58	0x3c8daa57	0.017293138
59	0x3c609e9f	0.013709693
60	0x3bc8f1fd	0.006132363
61	0x3bae8702	0.005326153
62	0x3a0754ad	0.0005162459
63	0x3c378e2c	0.01120333
64	0x3c1beaca	0.009516427
65	0x3b39cac6	0.0028349622
66	0xbb86b9e3	-0.004111515
67	0x3c0bd9ff	0.008535861
68	0x3ca04a84	0.019566782
69	0x3ba52c64	0.005040692
70	0x3c22ac6d	0.009928805
71	0x3a6c4839	0.00090134476
72	0x3c349027	0.011020697
73	0x3c850d12	0.016241584
74	0x3a6a72d6	0.00089435035
75	0xbba2032e	-0.0049442267
76	0x39a6854e	0.00031761307
77	0xbc55aa7f	-0.013041138
78	0x3b8b7d94	0.0042569134
79	0xb929da46	-0.00016198409
80	0x3c8609bb	0.016362062
81	0x3a993acc	0.0011690496
82	0x3c859ea7	0.016311003
83	0x3b071f56	0.0020618043
84	0x3b76b909	0.003764691
85	0x3c48f6e5	0.0122658955
86	0x3bd6b1d8	0.0065519623
87	0xbc1369f2	-0.008997427
88	0xbb8142b2	-0.0039447183
89	0xbb976c36	-0.004621054
90	0x3c1f32ed	0.0097167315
91	0x3c7f6045	0.015586917
92	0xbaae3640	-0.0013291314
93	0xbc05646f	-0.008141621
94	0x3c982242	0.018571023
95	0xb91ab857	-0.00014755256
96	0x3c8dc4af	0.0173057
97	0xbbef5493	-0.007303783
98	0x3b5e9f69	0.0033969528
99	0x3c3c3f5c	0.011489715
100	0x3c98da66	0.018658828
101	0xbaa9bd3d	-0.0012950074
102	0xbbbceb39	-0.0057653454
103	0x3a51a304	0.00079970085
104	0x3c71a6c3	0.014749232
105	0xbbc5abc3	-0.0060324385
106	0xbbfa3191	-0.0076353033
107	0x3b2cd095	0.0026369442
108	0x3cae2a15	0.0212603
109	0xbbfd6072	-0.0077324444
110	0x3c27f124	0.0102503635
111	0x3cc8fcbf	0.024534581
112	0x3caa796f	0.020809857
113	0x3cbd80ae	0.023132648
114	0x3a943aa9	0.0011308986
115	0x3c831378	0.016000494
116	0xbb92abcf	-0.0044760476
117	0x3c7191bc	0.014744218
118	0x3c42af9c	0.011882689
119	0x3c5e148b	0.0135547025
120	0x3c7a5913	0.015280026
121	0x3c6d2a8a	0.014475474
122	0x3c658dab	0.014010827
123	0xbc0eb08e	-0.008709086
124	0x3adba497	0.0016757426
125	0xbc5cda36	-0.01347976
126	0x3b9c974a	0.0047787772
127	0xbb6dc325	-0.0036279645
128	0x3aeb2476	0.0017939943
129	0x3c0f6373	0.008751738
130	0x3b12875f	0.002235852
131	0xbc426710	-0.011865392
132	0xbc81dfc4	-0.01585377
133	0x3c38089b	0.01123252
134	0xb960dadb	-0.00021443835
135	0x3bedabc5	0.0072531425
136	0xbc0e5554	-0.008687336
137	0xbb8739db	-0.00412677
138	0xbcc13c8a	-0.023588438
139	0xbbae8589	-0.005325977
140	0x3c4d7fac	0.012542646
141	0x3b06f2f1	0.0020591582
142	0xbbdd7e2e	-0.0067594266
143	0xbad7da0d	-0.0016468182
144	0x3d6304e7	0.055424597
145	0x3cf82ee6	0.0302958
146	0x3bf41b6a	0.007449557
147	0xbaf9c475	-0.0019055741
148	0xbca29831	-0.019847961
149	0xbb4d6a13	-0.0031343743
150	0xbc940376	-0.018068057
151	0xbcc82807	-0.024433149
152	0xbcae16bd	-0.021251077
153	0x3bd0a24b	0.006367003
154	0x3d0cbbbf	0.034358736
155	0x3d423806	0.04741671
156	0x3c9e2f5d	0.019309694
157	0x3c94c281	0.018159153
158	0x3cca2d54	0.024679817
159	0xbc5f4346	-0.013626879
160	0xbc445555	-0.011983235
161	0xbc8b7e14	-0.017027892
162	0xbcf45380	-0.029824972
163	0xbd008aaa	-0.03138224
164	0xbb8de064	-0.004329728
165	0xbb6ce687	-0.0036148147
166	0x3c1d04d9	0.009583675
167	0x3ce6da96	0.028180402
168	0x3d1502e9	0.03637973
169	0x3ce1523e	0.027505036
170	0x3cb31770	0.021861762
171	0xbbf6b290	-0.0075286105
172	0xbc43e0bf	-0.011955439
173	0xbc78362d	-0.015149635
174	0xbd245aa6	-0.04012551
175	0xbc870828	-0.016483381
176	0xbc38fbac	-0.011290472
177	0xbc26665a	-0.010156238
178	0xbba38d60	-0.0049912184
179	0x3c475c47	0.012167997
180	0x3c8b75e3	0.017023986
181	0x3cd482c2	0.025941256
182	0x3bab6eb3	0.0052317022
183	0xbc380e83	-0.011233929
184	0xbd377754	-0.044791535
185	0xbd190b5e	-0.037364356
186	0xbd4bc097	-0.049744215
187	0xbcaaf21f	-0.020867405
188	0xbc246c35	-0.010035564
189	0xbb954a83	-0.0045560016
190	0x3c5b6271	0.0133901695
191	0x3c1534ef	0.009106859
192	0x3cdb1471	0.026743146
193	0x3c8a83bc	0.016908519
194	0x3c5dcaa5	0.013537084
195	0xbacc3b44	-0.0015581627
196	0xbc40fa99	-0.011778497
197	0xbd167c28	-0.0367395
198	0xbcbc8343	-0.02301181
199	0xbcb7a4c5	-0.022417435
200	0xbc422e61	-0.011851878
201	0x3bc11077	0.0058918553
202	0xbbaf77cf	-0.0053548585
203	0x3b9e385b	0.0048284954
204	0x3d14a3b7	0.036288943
205	0x3ce60213	0.028077161
206	0xbc387d56	-0.011260351
207	0xbabd9975	-0.001446529
208	0xbc9ef74a	-0.019405026
209	0xbd2d2950	-0.042275727
210	0xbd4d505d	-0.05012547
211	0xbd2fb15d	-0.042893756
212	0xbc6a9007	-0.014316565
213	0x3b95ae9f	0.0045679356
214	0xbcaabcc7	-0.02084197
215	0x3d04d76e	0.032432012
216	0x3d5413f5	0.051776845
217	0x3c87f2e5	0.016595313
218	0x3c58c9f3	0.013231742
219	0x3b96901c	0.004594816
220	0xbc3f7bea	-0.011687258
221	0xbcc9b0d9	-0.02462046
222	0xbce0e68b	-0.027453681
223	0xbc2cc4c4	-0.010544959
224	0xbc23bfb9	-0.009994441
225	0xbc736aed	-0.014857036
226	0x3c86dfc8	0.01646413
227	0x3cf5281d	0.029926354
228	0x3d108baf	0.035289463
229	0x3caa8478	0.02081512
230	0x3c936043	0.017990237
231	0x3caec62f	0.021334736
232	0x3adfd546	0.001707711
233	0xbc75dd2f	-0.015006348
234	0xbd399070	-0.045303762
235	0xbb7dd20b	-0.0038729932
236	0x3b616168	0.0034390334
237	0xbc42f3d1	-0.011898951
238	0x3c84b2ff	0.016198633
239	0x3ce15602	0.027506832
240	0x3cc97424	0.024591513
241	0x3ca67776	0.020320635
242	0x3c710b63	0.014712187
243	0xbc438d57	-0.0119355535
244	0xba3db3f2	-0.0007236592
245	0xbcc78950	-0.024357468
246	0xbd1a9e1c	-0.03774844
247	0xbc105845	-0.008810108
248	0xbbc7e0fe	-0.006099819
249	0x3bdace15	0.006677399
250	0x3c8d1391	0.017221244
251	0x3caea5f9	0.021319376
252	0x3cbcd2dc	0.023049764
253	0x3c371d8d	0.011176479
254	0x3bd8d635	0.0066173323
255	0x3c66226a	0.014046291

bias f4 [5]
0	0x3e0f032e	0.13966057
1	0xbe00cd27	-0.1257826
2	0xbd13ffb1	-0.03613252
3	0x3d88da4e	0.06682263
4	0xbd1137ab	-0.03545348
