src/hw5/SimpleCNN.pt (torch, 34847 bytes, 4 tensors)

weight f4 [8, 3, 3, 3]
0.079193816 -0.026073795 0.05844082 0.20245421 0.05419005 0.23717178 0.15712689 0.22344485
0.1360606 -0.15118119 0.009232179 0.011463904 0.0108193075 -0.0094100265 -0.04661258 -0.026530065
-0.05286201 -0.07633814 0.077116184 0.036607586 -0.05486413 -0.17224874 0.019749727 -0.13597557
-0.09089338 -0.10501202 -0.004782606 0.53901714 0.06191128 0.56091225 0.12710221 0.42798623
0.11652913 -0.58969074 -0.45261863 -0.5932264 0.41736013 0.036421146 0.37858507 -0.16893847
0.2789737 -0.21583062 -0.33345667 -0.332252 -0.6421232 0.34475982 -0.042383764 0.37486848
-0.000829053 0.21927126 -0.14920494 -0.29596385 0.07653157 -0.28211513 0.3759945 0.031852257
0.06550671 -0.26365867 0.47218624 -0.017847758 -0.6178033 0.87839925 -0.09992002 0.2679373
-0.3183141 -0.052809376 -0.25310287 0.27823132 -0.33098957 -0.7687658 0.71479 -0.39831057
0.25047323 -0.1647441 0.06495118 -0.10438817 0.37027445 -0.0508118 -0.6588954 0.8040627
-0.4060978 -0.08523731 -0.2184301 -0.3453429 0.36429632 -0.21783566 -0.49948466 0.6016941
0.19080406 0.052079387 0.07353348 -0.422536 -0.3354573 0.22585829 -0.28567544 -0.47748652
0.39413044 0.1546385 -0.22459671 0.07373193 0.1019209 -0.16187131 0.3313286 0.05639998
-0.3124026 0.12921332 0.33232212 -0.037292447 0.137886 0.0022117288 0.07410573 0.15607226
0.20814477 -0.23994136 -0.0026433186 0.3094292 -0.019419992 0.14433652 -0.14646001 -0.07904746
-0.08369085 0.08019404 0.12882642 -0.115120664 0.30782443 -0.20237021 -0.155257 -0.062039074
0.1583063 0.2200936 -0.06587501 -0.013594636 0.2055442 0.35648903 0.061687745 -0.12140319
0.037398804 0.18693852 -0.39088395 -0.18438078 0.15309717 -0.29712084 -0.101843916 0.264677
-0.1853965 -0.07863283 0.2877366 -0.19899854 0.110873096 0.43325138 -0.29893884 0.26203823
0.28377262 -0.3941121 -0.29063505 0.07948943 -0.47652772 -0.117774844 0.4722921 -0.35249156
-0.062885135 0.43913442 -0.2003874 -0.0023988371 -0.36252868 0.34265336 0.24662362 0.3015896
-0.27994165 -0.20553881 -0.22009024 -0.14931741 -0.062368378 -0.2010028 0.5114227 0.5208622
0.48527795 -0.11761174 -0.25575852 -0.018826295 -0.31009912 -0.14999166 -0.45711365 0.234102
0.15627654 0.46074182 -0.32587752 -0.31263763 -0.23978122 -0.40546525 -0.18221468 -0.30609927
-0.27101696 -0.25671232 -0.002562247 -0.28015244 -0.073510446 -0.07319721 0.11146634 -0.17218076
0.03988797 -0.08857695 0.12114772 0.016529614 0.1547579 0.016361399 -0.023891011 0.10255259
0.16335636 0.26058653 0.27632663 0.19128585 0.093812495 0.32083187 0.30537942 0.2754597
00000000: 5e30 a23d b698 d5bc a45f 6f3d 2850 4f3e
00000010: 63f6 5d3d 29dd 723e dfe5 203e bace 643e
00000020: 7853 0b3e 3ecf 1abe 9142 173c 19d3 3b3c
00000030: 7743 313c 832c 1abc d5ec 3ebd 9455 d9bc
00000040: d685 58bd 2c57 9cbd 17ef 9d3d d6f1 153d
00000050: 36b9 60bd f961 30be 2eca a13c 2e3d 0bbe
00000060: 4f26 babd 8b10 d7bd 68b7 9cbb 07fd 093f
00000070: af96 7d3d f297 0f3f 1527 023e 0321 db3e
00000080: d3a6 ee3d f9f5 16bf a1bd e7be afdd 17bf
00000090: 3ab0 d53e 572e 153d e7d5 c13e 35fe 2cbe
000000a0: a4d5 8e3e b402 5dbe d5ba aabe ef1c aabe
000000b0: 3062 24bf 5c84 b03e 999a 2dbd c3ee bf3e
000000c0: ce54 59ba a588 603e 2ec9 18be 9388 97be
000000d0: 95bc 9c3d 6571 90be 5a82 c03e 8377 023d
000000e0: 6228 863d 45fe 86be 65c2 f13e 7635 92bc
000000f0: 5b28 1ebf c6de 603f dea2 ccbd 142f 893e
00000100: 11fa a2be a54e 58bd b396 81be 5674 8e3e
00000110: 7777 a9be d6cd 44bf 7afc 363f 5def cbbe
00000120: 073e 803e adb2 28be 2005 853d 77c9 d5bd
00000130: 9d94 bd3e 0920 50bd 5ead 28bf 0ed7 4d3f
00000140: 0dec cfbe e690 aebd 24ac 5fbe c9d0 b0be
00000150: 0c85 ba3e 5010 5fbe 74bc ffbe a008 1a3f
00000160: 2462 433e 3251 553d b998 963d a356 d8be
00000170: 0fc1 abbe 6547 673e 0d44 92be 1d79 f4be
00000180: 77cb c93e 8e59 1e3e aefc 65be c400 973d
00000190: e8bb d03d 98c1 25be e7a3 a93e aa03 673d
000001a0: 3cf3 9fbe 7f50 043e 2026 aa3e f7bf 18bd
000001b0: fd31 0d3e a7f2 103b bfc4 973d 68d1 1f3e
000001c0: e723 553e 30b3 75be 873b 2dbb 816d 9e3e
000001d0: ad16 9fbc f4cc 133e 9df9 15be a2e3 a1bd
000001e0: 1c66 abbd c63c a43d 13eb 033e 62c4 ebbd
000001f0: 2a9b 9d3e 233a 4fbe b1fb 1ebe af1c 7ebd
00000200: 0c1b 223e 3760 613e 7ae9 86bd 09bc 5ebc
00000210: 2e7a 523e bb85 b63e 4aac 7c3d 3ca2 f8bd
00000220: 7d2f 193d d06c 3f3e f121 c8be 51ce 3cbe
00000230: 81c5 1c3e 3920 98be 8b93 d0bd be83 873e
00000240: 95d8 3dbe 400a a1bd 3652 933e 46c6 4bbe
00000250: 6f11 e33d 20d3 dd3e 830e 99be e029 863e
00000260: a54a 913e 10c9 c9be 1ece 94be 5bcb a23d
00000270: 71fb f3be f033 f1bd 45d0 f13e c679 b4be
00000280: ecc9 80bd 3ad6 e03e 5b32 4dbe cf35 1dbb
00000290: 5c9d b9be 4370 af3e e78a 7c3e f469 9a3e
000002a0: 8354 8fbe c478 52be 565f 61be aae6 18be
000002b0: fc75 7fbd aed3 4dbe 99ec 023f 3a57 053f
000002c0: 5a76 f83e 6dde f0bd c8f2 82be 9a39 9abc
000002d0: 50c5 9ebe 6a97 19be cd0a eabe 6fb8 6f3e
000002e0: f506 203e 5ae6 eb3e 6bd9 a6be 0a12 a0be
000002f0: 3589 75be 2499 cfbe 7c96 3abe 0bb9 9cbe
00000300: bcc2 8abe cc6f 83be 5feb 27bb 2470 8fbe
00000310: a58c 96bd 6be8 95bd 7748 e43d 2750 30be
00000320: 9161 233d d567 b5bd 4c1c f83d 1d69 873c
00000330: db78 1e3e 5708 863c 15b7 c3bc 1807 d23d
00000340: e446 273e 996b 853e af7a 8d3e 70e0 433e
00000350: c420 c03d 1344 a43e b15a 9c3e 0e09 8d3e

bias f4 [8]
0.56064075 -0.27436322 0.049726877 -0.15870951 0.17356996 0.10795542 -0.0027856098 0.39254794
00000000: 2786 0f3f 5679 8cbe 69ae 4b3d bf84 22be
00000010: 53bc 313e bb17 dd3d c78e 36bb 0bfc c83e

weight f4 [5, 1568]
0.08211657 0.041232582 0.036260586 0.04860128 0.052279342 0.073637746 0.043222003 0.011616704
0.04512514 0.025119916 0.023036273 0.036165826 0.009206067 0.050649475 0.0629323 0.01852096
0.010250339 0.019987777 0.02693842 0.010739726 -0.0012389327 -0.002669046 -0.034505185 -0.017173775
-0.01909345 0.022409396 0.03590618 0.024225825 0.035414737 0.029674347 0.020778846 0.0048632044
0.030022362 0.015577121 -0.020018378 -0.02555673 0.0004144207 0.015993891 -0.011408397 0.03488018
0.016419932 0.014491253 0.05101243 0.002844207 0.04497881 0.011678364 0.0296437 0.008839387
-0.019680228 -0.017327504 -0.038973346 -0.034652125 -0.029736688 0.0018342239 0.005201196 0.03914046
0.045709424 0.043009218 0.040325176 0.022121575 0.006092084 -0.021833446 -0.050526652 -0.022476295
-0.035186663 -0.009222008 -0.0019834891 -0.021461312 0.020723108 0.04665171 0.056090165 0.027524449
0.013557076 0.0051911175 -0.009620521 -0.030013995 -0.04589135 -0.061280552 -0.03466263 -0.026932789
-0.010777034 -0.0101604285 -0.021208774 0.033326857 0.05571624 0.063920856 0.01932311 -0.0041242386
-0.027284136 -0.036339305 -0.03123643 -0.08335885 -0.058865827 -0.025111508 -0.00519772 -0.00030035677
-0.0040665297 0.0029881531 0.031509873 0.018128935 0.020335678 -0.012863398 -0.014427655 -0.006890353
-0.052514497 -0.04917505 -0.026374074 -0.019144578 0.011517153 -0.027125852 -0.013110255 -0.011489126
0.00014775299 0.00031408112 0.011113783 -0.010850005 -0.028009323 -0.029949788 -0.04596734 -0.027579479
-0.049621306 -0.043558884 -0.02088131 -0.012144465 -0.036013994 -0.022682667 0.02646759 0.02574331
0.008285563 0.00016338157 0.024197025 0.021333192 0.015701916 -0.032555703 -0.023672668 -0.03281801
-0.027949778 -0.023450501 0.013730304 -0.0011182431 0.013995705 0.017006041 0.0065950267 0.010322101
0.027522007 0.012649359 -0.026381155 -0.015730286 -0.0014095459 -0.006889929 0.014981609 0.016805697
0.006724465 0.027872946 -0.0042671543 0.026030013 0.028587645 -0.0036197265 0.031546023 0.013485623
-0.0121763805 0.0036114065 0.023253549 0.024952484 0.0045304936 0.0040434827 0.008464147 0.0061323517
-0.009365695 0.0026967546 0.049061906 0.023988103 0.04015208 0.030011298 0.031659693 0.0054738577
0.0013456714 0.043027557 0.011226132 -0.008445171 -0.002582607 -0.039801892 -0.00838696 0.011572208
0.062166948 0.04557973 0.042973634 0.052021254 0.03831783 -0.011425161 0.02985671 0.039225847
0.0075551807 0.052922636 0.006908805 -0.014359497 0.06913178 0.061671358 -0.0038951563 -0.027643727
-0.031306554 -0.048270874 -0.08410371 -0.032343138 -0.018951504 -0.006446823 0.021838149 0.013456451
0.052916996 0.03820039 0.09862806 0.025443025 -0.014990349 -0.06304544 -0.05448073 -0.042979747
-0.08784446 -0.053416457 -0.12932433 -0.013272431 -0.0244128 -0.020146513 -0.027914405 0.011087109
0.007777846 0.011922672 0.02999416 -0.00845933 -0.06406048 -0.12662545 -0.06536362 -0.1243718
-0.122119404 -0.0774848 -0.03098945 -0.042392273 0.021941168 0.029319094 0.04625279 0.0341806
0.027550133 -0.0050985133 -0.053933322 -0.10339009 -0.11108806 -0.14223021 -0.16015105 -0.087611526
0.0107764825 0.0383031 0.026293892 0.084614895 0.02109626 0.0011218541 0.004780273 -0.06445527
00000000: bb2c a83d 7fe3 283d fb85 143d 2312 473d
00000010: dd22 563d 63cf 963d 8e09 313d fd53 3e3c
00000020: 24d5 383d 48c8 cd3c 91b6 bc3c 9e22 143d
00000030: 0bd5 163c d375 4f3d a6e2 803d 45b9 973c
00000040: 0af1 273c 68bd a33c f6ad dc3c adf5 2f3c
00000050: af63 a2ba 29eb 2ebb 4f55 0dbd 04b0 8cbc
00000060: de69 9cbc e993 b73c 5c12 133d 3d75 c63c
00000070: 0b0f 113d 9e17 f33c 6638 aa3c 845b 9f3b
00000080: 75f1 f53c 2e37 7f3c 95fd a3bc 595c d1bc
00000090: 9b46 d939 9f05 833c 49ea 3abc 85de 0e3d
000000a0: 1883 863c b86c 6d3c 69f2 503d e065 3a3b
000000b0: b33b 383d 9c56 3f3c 58d7 f23c 14d3 103c
000000c0: 6e38 a1bc 69f2 8dbc 84a2 1fbd 63ef 0dbd
000000d0: 5b9a f3bc 576a f03a cb6e aa3b bf51 203d
000000e0: ce39 3b3d 6f2a 303d 032c 253d 4e38 b53c
000000f0: 1ba0 c73b 0edc b2bc 09f5 4ebd 3520 b8bc
00000100: e41f 10bd e817 17bc 6dfd 01bb a2cf afbc
00000110: 82c3 a93c dd15 3f3d cdbe 653d f47a e13c
00000120: 801e 5e3c 401a aa3b 649f 1dbc e9df f5bc
00000130: 91f8 3bbd 5101 7bbd 67fa 0dbd 27a2 dcbc
00000140: 2892 30bc ed77 26bc 06be adbc be81 083d
00000150: b636 643d f0e8 823d 804b 9e3c 9f24 87bb
00000160: fb82 dfbc 86d8 14bd 8be3 ffbc 0bb8 aabd
00000170: 4b1d 71bd a6b6 cdbc a351 aabb 3479 9db9
00000180: 8640 85bb e4d4 433b 7f10 013d 2283 943c
00000190: 0297 a63c 00c1 52bc f961 6cbc 78c8 e1bb
000001a0: 7119 57bd c76b 49bd 710e d8bc 17d5 9cbc
000001b0: 71b2 3c3c 0937 debc 65cc 56bc e33c 3cbc
000001c0: 24ee 1a39 41ab a439 9616 363c 38c4 31bc
000001d0: cf73 e5bc 4259 f5bc 4048 3cbd 5cee e1bc
000001e0: b63f 4bbd cd6a 32bd 480f abbc 94f9 46bc
000001f0: 6983 13bd 00d1 b9bc 8fd2 d83c a2e3 d23c
00000200: 2cc0 073c 6851 2b39 d738 c63c f2c2 ae3c
00000210: 4ea1 803c 2159 05bd 2fed c1bc 2d6c 06bd
00000220: eff6 e4bc 441b c0bc 12f5 603c 0392 92ba
00000230: 3e4e 653c 4150 8b3c 181b d83b 081e 293c
00000240: d575 e13c 423f 4f3c 4b1d d8bc cddc 80bc
00000250: 83c0 b8ba eac4 e1bb 6c75 753c 1aac 893c
00000260: e758 dc3b ce55 e43c 7cd3 8bbb e53c d53c
00000270: a330 ea3c ef38 6dbb 6736 013d cdf2 5c3c
00000280: 717f 47bc 59ad 6c3b 3a7e be3c 2769 cc3c
00000290: 8974 943b 317f 843b 35ad 0a3c e5f1 c83b
000002a0: 9272 19bc 09bc 303b 23f5 483d b382 c43c
000002b0: 8276 243d 41da f53c 98ad 013d 0c5e b33b
000002c0: 3d61 b03a aa3d 303d cfed 373c 9d5d 0abc
000002d0: f540 29bb 4f07 23bd 7669 09bc 5c99 3d3c
000002e0: c5a2 7e3d d0b1 3a3d 1f05 303d 3d14 553d
000002f0: 28f3 1c3d 9930 3bbc 0f96 f43c 48ab 203d
00000300: 7391 f73b 68c5 583d 4263 e23b 1944 6bbc
00000310: f694 8d3d 1b9b 7c3d e145 7fbb 1975 e2bc
00000320: 4d3b 00bd aeb7 45bd 913e acbd 3d7a 04bd
00000330: 2f40 9bbc df3f d3bb ebe5 b23c 7278 5c3c
00000340: 7ebf 583d 0378 1c3d 82fd c93d e46d d03c
00000350: 159a 75bc f81d 81bd 3027 5fbd 880b 30bd
00000360: cce7 b3bd 37cb 5abd 996d 04be 9c74 59bc
00000370: 5afd c7bc 4d0a a5bc c0ac e4bc b5a6 353c
00000380: 4ddd fe3b 5057 433c 50b6 f53c 0099 0abc
00000390: 2432 83bd 1aaa 01be 5ddd 85bd a4b6 febd
000003a0: bd19 fabd 5ab0 9ebd 96dd fdbc 85a3 2dbd
000003b0: f7bd b33c 992e f03c 9173 3d3d f500 0c3d
000003c0: d1b0 e13c 6e11 a7bb 30e9 5cbd 2fbe d3bd
000003d0: 2382 e3bd cca4 11be a3fe 23be ac6d b3bd
000003e0: d88f 303c b6e3 1c3d 4a66 d73c 934a ad3d
000003f0: 10d2 ac3c 2d0b 933a d6a3 9c3b 2001 84bd

bias f4 [5]
0.038674068 -0.2771895 -0.09728754 0.1340852 0.14432013
00000000: b368 1e3d c8eb 8dbe b13e c7bd a14d 093e
00000010: a8c8 133e
